models/pretrained/qnetwork_1000.pt (torch, 22273 bytes, 6 tensors)

fc1.weight f4 [64, 8]
0.93582636 1.2035319 -1.286332 -2.5327728 -0.5947668 -1.6009159 0.30363232 0.11692893
-0.778681 1.319577 -0.7212769 -0.61788744 0.25086075 -1.7496643 -1.6110442 0.8443733
-1.3844856 -0.48382398 0.6089784 1.7340634 1.6995177 0.88668066 1.7791518 -0.49194047
0.6199957 -0.6139436 -0.55582255 -1.3670856 2.533155 -1.4229174 0.17773035 0.45348397
-0.40840304 -2.8838034 1.0832125 -0.5728645 -1.5093294 -0.411116 0.8127986 -0.13283542
-0.0809939 -0.087996095 -0.2308629 2.3023043 2.260205 -1.8762883 2.5640936 3.873618
0.3150981 -0.16212921 -0.4918592 -1.767885 0.7091916 -0.37906882 -0.2768909 1.0199105
-0.8046446 0.56411874 -0.04507422 1.0228494 0.8737061 0.5843641 0.47383597 -0.68460935
1.1179612 -0.035327945 -0.26551715 0.25797054 6.410761 -0.09473393 0.13944033 0.5571625
1.4223547 0.077074274 0.18110171 1.6051911 -0.03778662 0.47515726 -0.29016334 0.019935159
-0.35126758 1.0407776 -0.02230496 0.35643905 1.6393566 2.5282953 0.48240125 1.0892096
-0.23885684 0.87647957 -0.5857544 2.0566852 0.34907457 0.49218163 -0.4492792 -0.06149126
-0.5168635 0.04483719 0.32385048 -2.5596654 -0.4675692 -0.41683766 -0.8012213 0.3585114
-0.6796232 -0.7079432 1.3038259 -0.7561277 -1.4153975 0.96259207 -0.9159749 0.19990665
-5.493693 1.84401 -1.9808904 1.2847489 1.0249116 -0.12788656 0.08269054 -0.12603274
2.060769 1.5158798 0.21466379 -0.38246986 -1.2030649 -0.6851596 0.62591183 0.7327514
0.12530479 -0.40474144 -0.101689115 -0.8156072 -0.21781072 -1.6815464 1.3441169 0.76958776
-0.3345336 -0.8746275 -0.2812222 1.3871979 -1.0644859 -2.394097 0.67856246 -0.9119413
-0.32356417 1.1722673 -2.194454 0.12694907 0.6135705 -0.134057 -0.08939141 1.0747776
-0.80049163 0.43809685 2.912639 -1.7112249 1.912515 -0.36774787 0.4659047 0.3884068
-1.4430122 -0.52211875 0.33528396 0.22061165 -1.8789603 0.6757975 0.31572214 -1.0036745
0.81944627 0.1502983 -1.0313013 -1.1791368 3.021637 0.5437117 -0.48063827 -0.7803094
-1.967613 1.2726849 -2.181089 -0.32354024 0.8335818 1.0208629 -0.9505813 -1.7017636
-3.655823 -0.66900736 -1.9210001 0.42986515 0.5184052 0.29959208 -0.11566504 0.20999077
-0.41706356 -1.5875428 -1.0029265 0.07338574 2.151163 -2.0356462 0.117109425 0.47943777
-1.7958822 1.6589192 -0.3556385 0.26547787 1.2730527 -0.49158207 0.05552275 -0.8713827
-0.79678375 -0.5466263 -3.8496776 -1.760024 -0.05324286 -0.28933117 -1.7598003 0.39398623
-0.07640366 -0.5964476 0.9724136 -2.2198265 -0.7288644 -1.1587074 -0.44127336 1.0036894
0.6505059 0.6700057 1.6239753 -3.0897372 -3.259191 -1.4861039 0.32037076 0.42411962
-1.4893328 -1.4655986 0.4716682 0.34528837 1.538279 0.91504693 -0.6749813 0.112280175
-0.034489997 -0.8670896 4.5563326 -1.1640235 1.9109447 1.1544778 -0.26909894 0.6633745
-1.1683593 0.64078146 -0.6092011 -0.19763295 3.9507055 1.3959675 -1.7344494 0.6614366
00000000: 5192 6f3f 550d 9a3f 87a6 a4bf f318 22c0
00000010: a342 18bf d0ea ccbf b275 9b3e 6f78 ef3d
00000020: a357 47bf e6e7 a83f 9aa5 38bf df2d 1ebf
00000030: d270 803e 00f5 dfbf b236 cebf d928 583f
00000040: d336 b1bf c7b7 f7be 02e6 1b3f caf5 dd3f
00000050: cc89 d93f 81fd 623f 3fbb e33f 9fdf fbbe
00000060: 0ab8 1e3f 682b 1dbf 634a 0ebf a9fc aebf
00000070: 361f 2240 2822 b6bf f2fe 353e 0d2f e83e
00000080: 341a d1be 3c90 38c0 b5a6 8a3f 3fa7 12bf
00000090: b531 c1bf cc7d d2be 9213 503f 0206 08be
000000a0: 21e0 a5bd 4c37 b4bd 5367 6cbe f458 1340
000000b0: 33a7 1040 372a f0bf 1c1a 2440 5be9 7740
000000c0: 8a54 a13e 3305 26be f8d4 fbbe 0e4a e2bf
000000d0: 958d 353f 4f15 c2be a5c4 8dbe 6d8c 823f
000000e0: 30fd 4dbf 166a 103f bf9f 38bd bbec 823f
000000f0: 34ab 5f3f e398 153f a19a f23e 8f42 2fbf
00000100: 5a19 8f3f 09b4 10bd ddf1 87be b714 843e
00000110: f424 cd40 dd03 c2bd 72c9 0e3e 34a2 0e3f
00000120: b80f b63f 1ed9 9d3d ba72 393e e776 cd3f
00000130: 25c6 1abd d047 f33e 4a90 94be 0f4f a33c
00000140: 58d9 b3be 3338 853f e4b8 b6bc 2e7f b63e
00000150: 70d6 d13f 97cf 2140 4cfd f63e 386b 8b3f
00000160: e396 74be f760 603f 00f4 15bf bba0 0340
00000170: e7b9 b23e 3bff fb3e ec07 e6be 42de 7bbd
00000180: 2b51 04bf 34a7 373d bbcf a53e 8fd1 23c0
00000190: 3b65 efbe bf6b d5be d71c 4dbf ce8e b73e
000001a0: c9fb 2dbf c43b 35bf c4e3 a63f 9691 41bf
000001b0: bf2b b5bf 6f6c 763f 557d 6abf 54b4 4c3e
000001c0: 55cc afc0 8508 ec3f d18d fdbf a772 a43f
000001d0: 4e30 833f b2f4 02be a859 a93d ba0e 01be
000001e0: a4e3 0340 5908 c23f d3d0 5b3e 17d3 c3be
000001f0: 08fe 99bf 9f66 2fbf c23b 203f 9995 3b3f
00000200: e64f 003e 453a cfbe 6242 d0bd a2cb 50bf
00000210: c609 5fbe ea3c d7bf 060c ac3f b403 453f
00000220: fd47 abbe 96e7 5fbf 5bfc 8fbe b38f b13f
00000230: 1341 88bf e338 19c0 45b6 2d3f fc74 69bf
00000240: 34aa a5be db0c 963f ef71 0cc0 f0fe 013e
00000250: f512 1d3f 3d46 09be d812 b7bd 5092 893f
00000260: 05ed 4cbf 3b4e e03e ad68 3a40 6b09 dbbf
00000270: 4bcd f43f 7349 bcbe 108b ee3e 42dd c63e
00000280: a0b4 b8bf 93a9 05bf 57aa ab3e 05e8 613e
00000290: c581 f0bf 1101 2d3f 55a6 a13e 6878 80bf
000002a0: 3bc7 513f cce7 193e ae01 84bf f4ed 96bf
000002b0: 8062 4140 b130 0b3f 3816 f6be 5bc2 47bf
000002c0: beda fbbf 57e7 a23f f696 0bc0 11a7 a5be
000002d0: 9e65 553f a3ab 823f 4c59 73bf 64d3 d9bf
000002e0: 01f9 69c0 1144 2bbf 55e3 f5bf 4917 dc3e
000002f0: 34b6 043f 2264 993e cbe1 ecbd d207 573e
00000300: 5b89 d5be 9a34 cbbf e55f 80bf 434b 963d
00000310: a8ac 0940 0748 02c0 11d7 ef3d de78 f53e
00000320: 78df e5bf 7757 d43f 4016 b6be b7ec 873e
00000330: 64f3 a23f a5b0 fbbe d36b 633d f012 5fbf
00000340: 05fa 4bbf b4ef 0bbf 1e61 76c0 7748 e1bf
00000350: 2f15 5abd 3723 94be 2341 e1bf 90b8 c93e
00000360: 8679 9cbd cab0 18bf 19f0 783f a311 0ec0
00000370: db96 3abf 8650 94bf 95ee e1be e578 803f
00000380: 8e87 263f 7e85 2b3f 6cde cf3f 41be 45c0
00000390: 9696 50c0 a738 bebf a307 a43e 3526 d93e
000003a0: 75a2 bebf bc98 bbbf 7f7e f13e a3c9 b03e
000003b0: 54e6 c43f 8440 6a3f 93cb 2cbf 26f3 e53d
000003c0: 6245 0dbd 96f9 5dbf 7acd 9140 b9fe 94bf
000003d0: d699 f43f eec5 933f 56c7 89be e9d2 293f
000003e0: cc8c 95bf 410a 243f 9af4 1bbf 4b60 4abe
000003f0: 5cd8 7c40 10af b23f 7002 debf e953 293f

fc1.bias f4 [64]
0.03314653 0.29762742 0.64189816 1.081736 -0.47123322 0.041711923 0.24807677 0.63600206
0.91304696 -0.1370801 0.6566697 0.6985997 0.3139623 -0.13407493 0.7870187 1.4665374
-1.2177124 0.25539342 -1.1691415 0.8655958 0.96434927 -0.64546573 -0.6559658 -0.6372594
-0.94806945 0.33517957 -0.2309391 0.15202677 -0.3408422 0.09209266 1.4407836 0.32759896
0.3839295 0.1285881 -0.49958426 -0.5931902 -0.94025755 -0.23470859 -0.25709495 -0.95180607
-0.7319411 0.69105726 -0.34318712 1.1677343 1.4517956 0.09344177 -0.8026465 -0.78481185
-1.3075087 -0.44414598 -0.042513765 -0.75260323 0.70511466 0.696892 -1.4269128 1.7279207
0.8182507 -0.10327265 0.9641728 -0.24142496 0.32615137 0.2562013 -0.43662703 -1.1721982
00000000: a8c4 073d 9f62 983e 7053 243f 5376 8a3f
00000010: 7b45 f1be 1fda 2a3d d607 7e3e 08d1 223f
00000020: 72bd 693f ba5e 0cbe 811b 283f 6ed7 323f
00000030: abbf a03e f04a 09be 0f7a 493f 7fb7 bb3f
00000040: 00de 9bbf edc2 823e 6ea6 95bf b097 5d3f
00000050: 98df 763f 3e3d 25bf 60ed 27bf 6f23 23bf
00000060: aeb4 72bf a89c ab3e 4d7b 6cbe e8ac 1b3e
00000070: de82 aebe 149b bc3d 996b b83f 0dbb a73e
00000080: 6892 c43e 99ac 033e 82c9 ffbe 50db 17bf
00000090: b8b4 70bf 7357 70be f3a1 83be 90a9 73bf
000000a0: 7e60 3bbf 21e9 303f 39b6 afbe 5178 953f
000000b0: 70d4 b93f 665e bf3d 3e7a 4dbf 6ee9 48bf
000000c0: 725c a7bf 1a67 e3be ea22 2ebd 9baa 40bf
000000d0: 6582 343f 8467 323f 14a5 b6bf 812c dd3f
000000e0: e178 513f 9c80 d3bd 07d4 763f 1b38 77be
000000f0: 50fd a63e d12c 833e 948d dfbe 970a 96bf

fc2.weight f4 [64, 64]
-0.44097108 0.0362649 0.49620304 -0.27734008 -0.5081306 0.5082237 -0.30748403 0.029936576
0.18029982 0.7641679 0.38460913 -0.270448 -1.797184 0.69090545 -0.69773936 0.81977254
-0.019503856 -0.40173975 1.7548202 -0.9260651 -0.3088058 0.5768524 1.0637523 -0.8143966
-0.43617764 -0.26220432 0.108646266 1.0518774 0.78284556 -0.40000004 -1.1899948 0.6794203
0.64110774 -0.61933506 -0.3577569 -0.027207896 0.2842853 0.344683 0.08495476 0.039548896
2.491341 0.4785914 0.56754917 -1.3183168 0.78446674 -0.36948612 0.114822485 0.24491036
1.4664049 1.5893518 0.4355415 -0.23993191 0.9448365 -0.54037595 0.94226074 -0.09275858
-0.8782571 0.66307104 0.34745076 0.8747881 -2.568069 -1.389974 -0.5154377 -0.40690517
-1.081633 -0.5732913 0.81083333 0.16791816 -0.5811585 0.12605879 0.20740184 0.0053498405
-0.079227194 0.13190015 0.95863754 1.5703833 -0.27921394 -0.38942635 -1.2275532 -1.217788
-0.3089315 0.56755507 0.8590134 0.659533 0.49892506 -0.79791313 -1.1732564 0.052859835
-1.2757655 -0.2328346 -2.3524373 -0.036813043 1.2786726 -0.48157254 -0.38334754 -1.3719251
0.36408642 0.60246164 -0.47438988 1.894828 2.3917513 -1.3892646 0.09903189 -2.3126273
-0.8541808 0.80203 -0.052317012 1.5906852 -0.15895012 -0.40296087 -1.1384373 -1.1196593
-0.33326876 0.123938255 -0.0024981163 -0.45721355 -0.3861708 -0.67558396 -0.2591588 -0.69612014
1.0153491 -0.2039585 -0.17936833 -1.0188062 0.51210177 -1.3685035 0.28936234 -0.50324255
-0.076511376 -0.015328497 0.9105713 -0.01454126 1.1374829 -0.447717 -0.3243446 0.99815565
-0.81733316 -1.0797566 0.7100186 0.6863537 0.7277378 -0.2616764 1.4956864 0.14723934
-1.9270674 -0.73826885 0.07722529 -1.108467 -0.12555945 1.5974146 0.29791075 -0.4767716
-1.5651692 1.1486967 2.0456684 1.0814064 -0.41247103 0.555776 -0.41136837 1.770624
0.16233003 -0.272133 -1.4632616 0.86229265 -0.07209562 -0.39371037 -0.6706829 -0.44066095
0.32614216 1.2309202 -0.15718704 -0.61186063 1.1932548 0.51825666 0.022650292 -1.4448466
0.3918471 1.1378604 0.30098823 1.044712 -0.19216424 2.4622686 0.28590629 -0.43842766
-0.36331412 0.0850327 0.31478918 -0.3454764 -1.0281303 0.7192093 0.07528255 -0.9860805
0.43375942 -1.0582749 1.2797494 0.5713629 0.79742604 0.17121355 -0.3927724 0.9264237
0.69820786 -1.3059446 0.40270394 -0.822594 -0.18873851 0.029803129 1.1401763 -0.07674492
0.96125686 1.8442942 0.7888632 -0.25315166 0.287855 0.28775114 -0.43946218 0.3836577
1.5854564 0.66449386 -0.24488409 0.03128454 0.5668639 1.3534749 -0.14314248 -0.5172758
0.13956629 0.010946092 1.0079725 -1.7320371 -1.1942754 1.0175288 -0.16650125 2.174939
-0.10761746 -1.4325595 0.8653 -1.1552464 0.93566823 1.3170239 -0.7686829 0.9545591
-0.8677933 0.85374254 -0.36056608 0.92730606 0.53364104 -0.78776777 0.4846153 0.39146167
-0.951584 -1.0318097 0.48808745 1.9028207 0.41635746 1.291321 1.3124093 1.3123966
00000000: f6c6 e1be 818a 143d 530e fe3e 85ff 8dbe
00000010: d914 02bf f31a 023f 8c6e 9dbe 8d3d f53c
00000020: 84a0 383e 82a0 433f 7deb c43e 2978 8abe
00000030: 200a e6bf 2edf 303f 0c9f 32bf 9ddc 513f
00000040: 8dc6 9fbc d5b0 cdbe f39d e03f 9a12 6dbf
00000050: cb1b 9ebe 99ac 133f 0929 883f 4c7c 50bf
00000060: ad52 dfbe a53f 86be ef81 de3d eba3 863f
00000070: 9168 483f cecc ccbe c051 98bf 7dee 2d3f
00000080: a31f 243f be8c 1ebf ea2b b7be 18e3 debc
00000090: d88d 913e 4a7a b03e c3fc ad3d 06fe 213d
000000a0: 2272 1f40 ef09 f53e e74a 113f 9bbe a8bf
000000b0: d0d2 483f 492d bdbe 0d28 eb3d c8c9 7a3e
000000c0: 28b3 bb3f e16f cb3f 4cff de3e b6b0 75be
000000d0: cee0 713f 1456 0abf 0038 713f 36f8 bdbd
000000e0: 75d5 60bf 06bf 293f 11e5 b13e 1df2 5f3f
000000f0: 3e5b 24c0 abea b1bf baf3 03bf e055 d0be
00000100: f372 8abf 38c3 12bf c692 4f3f bdf2 2b3e
00000110: cec6 14bf 8e15 013e 2661 543e b74d af3b
00000120: de41 a2bd d510 073e 4569 753f 5202 c93f
00000130: 21f5 8ebe e462 c7be 7720 9dbf 7ae0 9bbf
00000140: 452c 9ebe 4a4b 113f 4de8 5b3f 28d7 283f
00000150: 1b73 ff3e 0944 4cbf 442d 96bf 8e83 583d
00000160: 494c a3bf 326c 6ebe 558e 16c0 46c9 16bd
00000170: 8bab a33f ad90 f6be 2146 c4be 3e9b afbf
00000180: 8969 ba3e ed3a 1a3f 3be3 f2be b989 f23f
00000190: 7412 1940 6cd3 b1bf 3bd1 ca3d 1602 14c0
000001a0: 98ab 5abf d751 4d3f 5d4a 56bd 939b cb3f
000001b0: d2c3 22be e350 cebe 50b8 91bf ff50 8fbf
000001c0: 34a2 aabe 57d3 fd3d 70b7 23bb e517 eabe
000001d0: 2eb8 c5be 12f3 2cbf 76b0 84be ee34 32bf
000001e0: f6f6 813f 7fda 50be 55ac 37be 3e68 82bf
000001f0: 1a19 033f 1f2b afbf 4d27 943e 81d4 00bf
00000200: ffb1 9cbd 6024 7bbc 331b 693f 773e 6ebc
00000210: 0a99 913f 2a3b e5be 7f10 a6be 2187 7f3f
00000220: bf3c 51bf 7735 8abf c7c3 353f e0b4 2f3f
00000230: 064d 3a3f 73fa 85be a772 bf3f e9c5 163e
00000240: 25aa f6bf 30ff 3cbf 4b28 9e3d 3fe2 8dbf
00000250: a892 00be 1578 cc3f c287 983e 681b f4be
00000260: 7757 c8bf 7e08 933f 3bec 0240 866b 8a3f
00000270: 672f d3be 5647 0e3f e09e d2be cfa3 e23f
00000280: d839 263e 0455 8bbe 284c bbbf 36bf 5c3f
00000290: dea6 93bd 6894 c9be e0b1 2bbf 509e e1be
000002a0: 1bfc a63e cb8e 9d3f a4f5 20be e6a2 1cbf
000002b0: 93bc 983f 78ac 043f 1b8d b93c bcf0 b8bf
000002c0: 2fa0 c83e 69a5 913f 211b 9a3e 1fb9 853f
000002d0: b4c6 44be cf95 1d40 4f62 923e 9779 e0be
000002e0: 4f04 babe a025 ae3d 0c2c a13e 48e2 b0be
000002f0: c699 83bf 1a1e 383f bd2d 9a3d c66f 7cbf
00000300: b715 de3e 8d75 87bf d4ce a33f d744 123f
00000310: 1d24 4c3f 9b52 2f3e 7719 c9be 1b2a 6d3f
00000320: c0bd 323f 3129 a7bf 362f ce3e 8595 52bf
00000330: ab44 41be b125 f43c 4cf1 913f 712c 9dbd
00000340: ee14 763f d511 ec3f f0f2 493f 189d 81be
00000350: bb61 933e 1e54 933e 3001 e1be c86e c43e
00000360: 3cf0 ca3f 451c 2a3f e5c2 7abe 3824 003d
00000370: fe1d 113f aa3e ad3f f193 12be 306c 04bf
00000380: 77ea 0e3e 3d57 333c 3e05 813f 64b3 ddbf
00000390: 04de 98bf 623e 823f 4e7f 2abe 3332 0b40
000003a0: 8b66 dcbd 1c5e b7bf 4d84 5d3f 1ddf 93bf
000003b0: f487 6f3f 3d94 a83f 67c8 44bf fc5d 743f
000003c0: b427 5ebf df8e 5a3f 1e9c b8be ee63 6d3f
000003d0: b39c 083f 26ab 49bf 7f1f f83e aa6d c83e
000003e0: 029b 73bf 5712 84bf 99e6 f93e a18f f33f
000003f0: ce2c d53e 024a a53f 07fd a73f 9dfc a73f

fc2.bias f4 [64]
-0.49796802 0.28191546 0.046594754 -0.4822507 -0.23425797 -0.5498266 -0.43640822 -0.087209634
-0.824256 0.53207827 0.003250071 0.12479543 0.17540838 0.73555046 0.42550257 0.6097938
0.09284214 0.4121592 0.22941929 0.6182757 -0.42208245 0.08199048 0.3291388 0.080993205
-0.7503574 0.89547455 0.3064535 -0.7759409 0.18303336 1.0260739 -0.56944203 -0.08825225
0.2554613 -0.5175861 -0.37156862 -0.5835168 -0.116750486 0.08012089 0.65360576 1.1107761
-0.6363831 0.35308242 -0.6680937 -0.43224493 0.32227176 -0.010640861 -0.04285073 -0.17133224
-0.32734582 -0.2279601 0.05989234 0.37879464 -0.15730998 0.41947868 0.29973102 -0.31725296
-0.44973302 0.323372 -0.38918915 -0.08199148 0.6563946 -0.08531007 -0.6395007 0.6788067
00000000: aaf5 febe 3957 903e 24da 3e3d 90e9 f6be
00000010: 52e1 6fbe 70c1 0cbf e670 dfbe f79a b2bd
00000020: 7102 53bf 4836 083f 25ff 543b bf94 ff3d
00000030: 419e 333e 094d 3c3f 79db d93e 721b 1c3f
00000040: 0524 be3d 8806 d33e e4ec 6a3e 5147 1e3f
00000050: 311b d8be a0ea a73d e184 a83e c4df a53d
00000060: 6c17 40bf d23d 653f 79e7 9c3e 10a4 46bf
00000070: 196d 3b3e 6456 833f f4c6 11bf 98bd b4bd
00000080: d3cb 823e 8680 04bf 3e3e bebe 5b61 15bf
00000090: e11a efbd 6c16 a43d b552 273f e92d 8e3f
000000a0: 01ea 22bf 38c7 b43e 3008 2bbf 354f ddbe
000000b0: ce00 a53e 0157 2ebc 3f84 2fbd b871 2fbe
000000c0: df99 a7be 5f6e 69be ac51 753d 5ff1 c13e
000000d0: de15 21be e9c5 d63e 5876 993e fb6e a2be
000000e0: 6843 e6be 0491 a53e cd43 c7be 26eb a7bd
000000f0: 7a09 283f 0cb7 aebd 51b6 23bf 47c6 2d3f

out.weight f4 [4, 64]
1.1774561 -1.3496819 1.5717827 3.0438967 1.3635304 3.7828145 1.9250277 2.0719216
3.0886738 -3.153828 -5.449794 -1.8694406 6.704689 -1.5545995 -0.8115442 -0.9883203
-1.1043365 -1.2073613 -3.6675649 -2.319259 3.308499 -2.5520294 -4.001742 1.5677494
-4.454316 -1.1551793 -3.9551063 1.7992415 -1.4901419 -4.8282213 6.2093477 4.8449316
0.9342276 1.697231 6.290667 1.2948731 5.4019456 -2.5672886 -1.5552473 4.455086
2.827035 -1.5816286 2.7845314 1.3068663 -3.8355076 2.16295 6.304203 -5.734223
2.6456695 0.9498258 -6.545515 -1.1179516 -6.99584 -5.852774 -1.8333081 2.4882004
0.40889075 -3.138887 0.6612702 1.55323 -1.5018573 0.7109459 6.0482707 -5.8112316
0.90201545 -1.4235448 1.5205398 2.5103798 1.3550922 4.4049063 1.5762085 1.7902637
3.3062596 -3.6901524 -5.0629325 -1.7299564 7.299066 -0.9851 -0.9004114 -0.25994837
-0.75532216 -1.4023622 -3.243859 -2.75582 3.1690907 -2.325494 -3.3503134 2.8374965
-4.851154 -1.6189917 -3.8474457 1.7665491 -1.4713519 -5.632086 6.2375765 4.3440332
1.1593167 1.747724 6.5516686 1.2100998 5.842072 -2.43218 -1.725224 5.2197223
1.9947661 -1.6779926 2.7421715 1.5914124 -3.4448888 1.9382925 6.12018 -5.0927157
2.6635053 1.8365448 -6.633772 -1.6003864 -7.4941854 -6.92795 -1.909356 2.391096
1.5909756 -3.1041946 0.7250181 1.8875663 -1.3060446 0.91686016 5.787779 -4.70289
1.2786951 -1.0624464 1.459477 3.171122 1.6000344 4.7179284 1.4628671 1.7321099
3.4239771 -3.2507946 -5.661188 -1.8145489 6.8415174 -1.5834208 -0.85499465 -0.6857949
-0.7269464 -1.2544733 -2.300238 -1.6637361 2.8083558 -2.6698122 -4.468412 -1.8388091
-4.7400584 -2.6179454 -3.8040435 1.862092 -1.3214481 -4.279473 4.998661 4.903615
0.9550697 2.613198 6.370766 1.3103307 6.2258573 -2.5417085 -1.4048305 5.3692503
2.5740364 -1.7635517 2.7798135 1.3411441 -3.6194847 2.2232473 7.4168863 -4.7515306
2.5352163 1.1332861 -6.02576 -1.8216795 -6.8461213 -6.7755246 -3.354167 2.9038332
-1.2881368 -3.4522138 0.63374454 1.5487742 -1.2722094 1.1977575 5.575943 -4.8302255
1.3289832 -1.6570163 1.7479963 3.022188 1.5325752 4.00239 1.0417284 2.1754682
3.3500397 -2.989959 -5.757622 -2.0395107 6.52695 -1.6070384 -0.6817784 -1.6142437
-0.94791675 -1.0766704 -2.9448805 -2.5678468 3.715455 -1.9134084 -3.624681 2.3211722
-4.600509 -1.2378776 -3.8118608 1.8235397 -1.5578735 -5.232852 5.9224324 4.953167
1.114743 1.8523098 6.2382894 1.3272411 5.667005 -2.6808536 -1.8356606 4.3237767
3.2225266 -1.5365983 2.7449622 1.3062476 -4.2439384 2.5364232 6.9956694 -4.8260484
2.3297975 1.1585556 -7.123658 -1.3358253 -6.4745345 -6.551243 -2.2007113 1.4306171
-0.3216004 -3.3293226 1.0203774 1.221192 -1.5006955 0.9124693 5.023846 -6.243983
00000000: e2b6 963f 60c2 acbf 2d30 c93f 34cf 4240
00000010: 2a88 ae3f a219 7240 4f67 f63f 5d9a 0440
00000020: d5ac 4540 51d8 49c0 b664 aec0 d449 efbf
00000030: d08c d640 1efd c6bf 5cc1 4fbf 8f02 7dbf
00000040: e65a 8dbf d18a 9abf 62b9 6ac0 bd6e 14c0
00000050: 73be 5340 7354 23c0 450e 80c0 03ac c83f
00000060: c289 8ec0 eadc 93bf 7620 7dc0 8c4d e63f
00000070: f8bc bebf ca80 9ac0 fab2 c640 ae09 9b40
00000080: 8a29 6f3f de3e d93f 254d c940 67be a53f
00000090: bddc ac40 754e 24c0 5812 c7bf 1190 8e40
000000a0: 24ee 3440 ce72 cabf c335 3240 6547 a73f
000000b0: f578 75c0 c66d 0a40 08bc c940 c17e b7c0
000000c0: a652 2940 c927 733f dc74 d1c0 0a19 8fbf
000000d0: ecdd dfc0 ed49 bbc0 d7a9 eabf ad3e 1f40
000000e0: 215a d13e 86e3 48c0 0149 293f 3ed0 c63f
000000f0: dc3c c0bf 8d00 363f 6f8b c140 9cf5 b9c0
00000100: 7cea 663f b736 b6bf 0ca1 c23f 10aa 2040
00000110: a973 ad3f fef4 8c40 33c1 c93f 5c27 e53f
00000120: c299 5340 752b 6cc0 8b03 a2c0 366f ddbf
00000130: f391 e940 832f 7cbf 5d81 66bf f417 85be
00000140: cb5c 41bf 9b80 b3bf 639b 4fc0 5b5f 30c0
00000150: 62d2 4a40 e5d4 14c0 896b 56c0 8b99 3540
00000160: a73c 9bc0 1f3b cfbf 8d3c 76c0 481e e23f
00000170: 4255 bcbf 0c3a b4c0 3a9a c740 5202 8b40
00000180: 7d64 943f 6cb5 df3f 45a7 d140 8de4 9a3f
00000190: 41f2 ba40 d6a8 1bc0 24d4 dcbf f707 a740
000001a0: 7f54 ff3f 76c8 d6bf bd7f 2f40 67b3 cb3f
000001b0: 0f79 5cc0 f819 f83f 84d8 c340 87f7 a2c0
000001c0: df76 2a40 e613 eb3f dc47 d4c0 76d9 ccbf
000001d0: 5ed0 efc0 c4b1 ddc0 c765 f4bf b807 1940
000001e0: 17a5 cb3f 20ab 46c0 c99a 393f c69b f13f
000001f0: 782c a7bf 59b7 6a3f 7c35 b940 137e 96c0
00000200: 48ac a33f 3efe 87bf 24d0 ba3f aaf3 4a40
00000210: edcd cc3f 45f9 9640 3b3f bb3f c7b5 dd3f
00000220: 7122 5b40 050d 50c0 7428 b5c0 2343 e8bf
00000230: b6ed da40 88ad cabf eee0 5abf 4190 2fbf
00000240: 2919 3abf 9592 a0bf 1937 13c0 4ef5 d4bf
00000250: 1abc 3340 34de 2ac0 3bfd 8ec0 195e ebbf
00000260: 8fae 97c0 6b8c 27c0 7375 73c0 0859 ee3f
00000270: 3625 a9bf 71f1 88c0 08f5 9f40 6aea 9c40
00000280: 737f 743f a33e 2740 51dd cb40 ebb8 a73f
00000290: 393a c740 5aab 22c0 7cd1 b3bf e6d0 ab40
000002a0: 03bd 2440 10bc e1bf 77e8 3140 9caa ab3f
000002b0: a3a5 67c0 af49 0e40 2257 ed40 8a0c 98c0
000002c0: fc40 2240 850f 913f 07d3 c0c0 cb2c e9bf
000002d0: 6d13 dbc0 19d1 d8c0 acaa 56c0 67d8 3940
000002e0: abe1 a4bf 12f1 5cc0 153d 223f 3c3e c63f
000002f0: c2d7 a2bf 1e50 993f 206e b240 3591 9ac0
00000300: 1f1c aa3f 1c19 d4bf 58be df3f 876b 4140
00000310: 6d2b c43f 9413 8040 5b57 853f df3a 0b40
00000320: 0d67 5640 7d5b 3fc0 703e b8c0 5887 02c0
00000330: c6dc d040 6fb3 cdbf 0789 2ebf 8a9f cebf
00000340: acaa 72bf 56d0 89bf ec78 3cc0 9a57 24c0
00000350: 04ca 6d40 91ea f4bf c6fa 67c0 168e 1440
00000360: 5f37 93c0 c672 9ebf 87f5 73c0 c069 e93f
00000370: 6668 c7bf 8673 a7c0 9184 bd40 5880 9e40
00000380: e6af 8e3f 7d18 ed3f 11a0 c740 09e3 a93f
00000390: 1b58 b540 1b93 2bc0 edf6 eabf 615c 8a40
000003a0: e03d 4e40 41af c4bf 76ad 2f40 1f33 a73f
000003b0: 58ce 87c0 c254 2240 86dc df40 fd6e 9ac0
000003c0: 671b 1540 8d4b 943f 02f5 e3c0 53fc aabf
000003d0: 632f cfc0 c8a3 d1c0 74d8 0cc0 761e b73f
000003e0: cfa8 a4be 9f13 55c0 ba9b 823f 0550 9c3f
000003f0: ca16 c0bf 9797 693f 59c3 a040 b5ce c7c0

out.bias f4 [4]
2.2957852 1.5879564 2.0223498 2.4669213
00000000: 25ee 1240 2842 cb3f 2e6e 0140 0ae2 1d40
