models/pretrained/qnetwork_2000.pt (torch, 22273 bytes, 6 tensors)

fc1.weight f4 [64, 8]
0.67406946 2.1642418 -2.5299401 -1.0947121 2.9254754 -1.1863884 0.269966 0.30097362
-1.657041 2.758028 -0.77813095 -0.25711232 1.7329593 -0.79908895 -2.2583263 0.78590363
-1.8718942 -1.096317 1.0712045 1.3599637 0.79384 1.936466 2.7316074 -0.59856355
-1.2165374 -0.67713493 1.0882071 0.35377634 2.605388 1.3620586 1.5346855 0.44582227
-1.4775122 -0.9561332 1.8355854 -1.2476562 -3.7820003 -0.56263757 0.7636781 -0.10215803
-0.8662942 -0.22414935 -0.14019237 1.7348086 4.121329 0.22177806 4.8162584 3.1865137
0.21002816 -0.0011328087 1.7518893 -2.021554 0.2923638 -0.48308167 -0.036584243 0.67239845
0.049213614 1.1523328 0.4507031 2.3892138 -0.16444583 1.596183 0.03419199 -0.8374703
-0.13543168 -0.7040913 0.3309112 0.4209137 6.8315244 0.66783845 1.0415021 1.0540032
0.78810596 -0.61960095 0.40463778 1.1137701 -1.1339235 -0.58069557 0.86701375 1.4833483
0.0714862 0.9546395 -0.8321101 0.027672566 2.3627355 3.1781046 0.998392 0.3144023
-0.37623784 0.3136975 -0.2820049 3.2761302 0.6116407 -0.07539176 -0.947592 -0.29715988
-1.0153788 0.8568575 0.86299354 -2.5260513 -0.7272239 -0.39360166 -0.92514884 -0.12402923
-1.3615509 0.619065 1.7579784 -1.4183335 -1.4840965 0.3874176 -1.0804921 0.071304634
-6.441278 1.7577149 -2.2241538 2.2474372 1.8079783 0.21102795 0.512744 -0.1927813
3.0816066 3.0087755 1.3984569 0.6455139 -0.5618157 -0.059186995 -0.1922243 -0.10208005
-0.5244067 -3.4845443 1.2729671 -0.9333707 -0.53840107 -1.0083743 1.3008213 1.3553832
0.6378402 -0.69933283 -1.2393464 0.782098 1.58967 -3.2144983 -0.26750457 -1.0969737
-0.5756646 1.4118702 -1.2417234 -0.53301275 1.790493 -0.42679387 -0.8404595 1.3811657
-1.780594 1.0222914 2.8935242 -0.9850662 2.7161088 -0.4025426 0.5439195 1.5645344
-0.68459755 -0.72639346 0.42627898 0.5810035 -2.1307132 -0.082318544 0.60586405 -1.3305081
0.46478862 0.116521336 -1.1193209 -2.1470594 3.6563256 0.7959823 0.15043068 -0.21433331
-1.195929 0.23412804 -1.7070421 -0.22245368 1.0380472 2.2127664 -0.04405469 -1.911246
-3.7937841 -1.1573486 -2.0134017 -0.46539688 0.51446664 -0.0046159774 0.04426343 0.32263017
-1.3006375 -1.8931888 -1.1489298 0.4421134 4.400471 -0.7172805 0.29726252 0.87527806
-2.6952317 4.604189 -1.1448362 1.0536625 0.98819363 -1.2439561 0.028635465 -0.69812053
0.7136396 -0.08504259 -3.6915927 -1.4753284 2.7665155 0.6557008 -1.636012 1.1857685
0.15891099 -0.38266888 0.3967727 -1.9376652 -0.9579324 -1.5262867 -0.3764083 1.14166
0.5422457 1.2092296 1.4676224 -0.9094134 -2.7884424 -3.1101823 -0.57741475 0.75946486
-1.6425207 -0.62377936 0.35635376 -0.3610717 0.50282264 2.3761077 -1.3477044 -1.2376179
-0.8799569 -0.470343 5.3999124 -1.2835642 0.9095047 1.5249395 -0.7607028 0.19598104
-1.5740423 -0.57368433 1.7612741 -0.14042625 1.7185128 2.2136517 -2.5837219 -0.0030406828
00000000: d18f 2c3f f082 0a40 8aea 21c0 871f 8cbf
00000010: fd3a 3b40 93db 97bf fc38 8a3e 3719 9a3e
00000020: eb19 d4bf 8883 3040 9733 47bf 3aa4 83be
00000030: 9cd1 dd3f 1891 4cbf 6b88 10c0 fb30 493f
00000040: 3b9a efbf 1e54 8cbf 3b1d 893f 4a13 ae3f
00000050: 1939 4b3f 1ede f73f a8d2 2e40 763b 19bf
00000060: 7fb7 9bbf b758 2dbf 5f4a 8b3f 2c22 b53e
00000070: adbe 2640 f057 ae3f 9370 c43f d142 e43e
00000080: 1f1f bdbf 25c5 74bf 76f4 ea3f 33b3 9fbf
00000090: 4b0c 72c0 0409 10bf 6880 433f 3b38 d1bd
000000a0: 75c5 5dbf 6887 65be 978e 0fbe 350e de3f
000000b0: ede1 8340 ca19 633e ca1e 9a40 d7ef 4b40
000000c0: 9f11 573e c17a 94ba e93d e03f 2461 01c0
000000d0: b5b0 953e 7b56 f7be 5cd9 15bd 4e22 2c3f
000000e0: 3794 493d a47f 933f 8fc2 e63e e1e8 1840
000000f0: 7d64 28be b94f cc3f e60c 0c3d 7464 56bf
00000100: 9aae 0abe 543f 34bf 316d a93e 0082 d73e
00000110: d99b da40 76f7 2a3f f14f 853f 94e9 863f
00000120: 50c1 493f 2b9e 1ebf af2c cf3e 0590 8e3f
00000130: 6824 91bf 77a8 14bf 9df4 5d3f 5bde bd3f
00000140: 5b67 923d 4163 743f 2b05 55bf 94b1 e23c
00000150: 0f37 1740 1166 4b40 9e96 7f3f 57f9 a03e
00000160: 3fa2 c0be f59c a03e f262 90be 1eac 5140
00000170: 7c94 1c3f ff66 9abd 6495 72bf 5725 98be
00000180: eff7 81bf 035b 5b3f 25ed 5c3f d3aa 21c0
00000190: 582b 3abf 2886 c9be 8ed6 6cbf 0903 febd
000001a0: 4d47 aebf 0b7b 1e3f 7005 e13f f48b b5bf
000001b0: e0f6 bdbf 9a5b c63e 914d 8abf 2a08 923d
000001c0: f31e cec0 cdfc e03f 8958 0ec0 03d6 0f40
000001d0: d56b e73f b617 583e 3143 033f 7668 45be
000001e0: 0b39 4540 c78f 4040 a300 b33f 6640 253f
000001f0: 27d3 0fbf 106e 72bd 72d6 44be 580f d1bd
00000200: 843f 06bf c602 5fc0 96f0 a23f 62f1 6ebf
00000210: a7d4 09bf 6912 81bf 5081 a63f 327d ad3f
00000220: 7f49 233f 7a07 33bf e7a2 9ebf 9337 483f
00000230: 4e7a cb3f 57ba 4dc0 5cf6 88be a269 8cbf
00000240: c15e 13bf 2ab8 b43f cbf0 9ebf 8673 08bf
00000250: e02e e53f ba84 dabe 5b28 57bf 0aca b03f
00000260: 81ea e3bf 72da 823f 802f 3940 4c2d 7cbf
00000270: bad4 2d40 101a cebe 4f3e 0b3f aa42 c83f
00000280: c941 2fbf ecf4 39bf 3d41 da3e a5bc 143f
00000290: 9b5d 08c0 a096 a8bd e819 1b3f 174e aabf
000002a0: c6f8 ed3e bda2 ee3d e845 8fbf 6c69 09c0
000002b0: 3d01 6a40 7fc5 4b3f 800a 1a3e 317a 5bbe
000002c0: 3414 99bf 43bf 6f3e 5b80 dabf e6ca 63be
000002d0: bbde 843f f79d 0d40 b172 34bd b5a3 f4bf
000002e0: 5ccd 72c0 0024 94bf 93db 00c0 8048 eebe
000002f0: 16b4 033f a041 97bb 924d 353d c82f a53e
00000300: 4a7b a6bf 0354 f2bf 2210 93bf b05c e23e
00000310: a9d0 8c40 b29f 37bf cb32 983e 3912 603f
00000320: ad7e 2cc0 8455 9340 fe89 92bf 6ade 863f
00000330: 42fa 7c3f f439 9fbf ec94 ea3c 07b8 32bf
00000340: 16b1 363f cf2a aebd 0e43 6cc0 90d7 bcbf
00000350: 970e 3140 02dc 273f d768 d1bf 43c7 973f
00000360: 90b9 223e 2ded c3be cb25 cb3e 6a05 f8bf
00000370: 0f3b 75bf 5d5d c3bf 97b8 c0be ea21 923f
00000380: 9dd0 0a3f 09c8 9a3f 0ddb bb3f 51cf 68bf
00000390: d775 32c0 3a0d 47c0 74d1 13bf 4a6c 423f
000003a0: 1e3e d2bf 01b0 1fbf 0074 b63e 64de b8be
000003b0: fcb8 003f 2612 1840 9481 acbf 436a 9ebf
000003c0: db44 61bf ccd0 f0be 15cc ac40 d54b a4bf
000003d0: 4dd5 683f 3831 c33f 6bbd 42bf 41af 483e
000003e0: 387a c9bf fadc 12bf 6e71 e13f e6cb 0fbe
000003f0: 3af8 db3f 78ac 0d40 b35b 25c0 3146 47bb

fc1.bias f4 [64]
0.014821083 0.1568449 0.96346116 1.057882 -0.28471082 0.4430003 -0.27750602 -0.012879316
1.7751191 0.9783475 0.33224502 -0.15825665 0.9756201 -0.11838285 0.63678557 1.1878394
-1.8199673 0.5137095 -1.7631308 1.1273143 1.1068985 -0.8173629 -1.0822589 -0.4768962
-0.9369252 0.08086684 -0.2484739 -0.31954536 -0.6897523 -0.36018747 1.072473 0.61723375
1.0482279 0.13566363 -1.6146632 -0.14190368 -1.3104154 -0.692514 0.101812474 -0.46393812
-0.755887 0.5868899 -0.62912005 1.8407439 1.3743197 -0.52730966 -0.39679766 -0.33565012
-1.610305 -0.95815027 0.4971284 -1.5369768 0.5009489 0.3266348 -0.9419759 1.4202945
1.0333419 0.13064626 0.513529 -0.11794777 0.29791212 -0.2893592 -0.5857126 -0.90908337
00000000: 21d4 723c f39b 203e 64a5 763f ad68 873f
00000010: 9ec5 91be efd0 e23e 4515 8ebe c403 53bc
00000020: 1a37 e33f fb74 7a3f 051c aa3e 080e 22be
00000030: 3dc2 793f b572 f2bd 6104 233f 1f0b 983f
00000040: b0f4 e8bf 7782 033f 45ae e1bf d64b 903f
00000050: daae 8d3f b23e 51bf 7687 8abf bd2b f4be
00000060: 54da 6fbf 849d a53d f16f 7ebe 739b a3be
00000070: 9b93 30bf 7e6a b8be cc46 893f 0803 1e3f
00000080: 552c 863f 68eb 0a3e 49ad cebf 334f 11be
00000090: b1bb a7bf 9948 31bf 0f83 d03d 4c89 edbe
000000a0: cf81 41bf 6b3e 163f 030e 21bf 7f9d eb3f
000000b0: b5e9 af3f c4fd 06bf 1029 cbbe 55da abbe
000000c0: 791e cebf 5649 75bf 9d87 fe3e a8bb c4bf
000000d0: 303e 003f ad3c a73e 5525 71bf 36cc b53f
000000e0: 8c44 843f 22c8 053e a376 033f 9a8e f1bd
000000f0: f087 983e e426 94be 43f1 15bf b0b9 68bf

fc2.weight f4 [64, 64]
0.059462987 0.11635876 0.8344103 -0.70538896 -0.6680923 -0.031625997 -0.27817607 -0.6288499
0.08079905 0.9253679 -0.0416314 -0.9482251 -2.0545087 0.025667481 -2.1903522 1.0445517
0.48381695 -0.6237152 2.7886703 -0.97378 -1.0691117 1.2671674 2.2325602 -0.80341417
0.6669707 -1.1732119 -0.47331205 1.176689 0.37315992 -0.24821496 -1.694522 0.19788018
0.5091313 -1.8832012 -0.23002705 -0.3039411 0.76038927 0.9372406 -0.012777928 0.4075194
2.4764729 -0.047802866 0.9434119 -1.4425927 1.0899667 -0.29025158 1.6995261 0.5309861
0.9826117 0.36970705 0.5979056 -0.25876996 0.9175073 -0.2425859 1.4740309 -0.45640874
-0.64412296 0.9951268 0.28370807 1.2075713 -2.5378535 -1.285911 -0.24125165 -0.5300752
-1.5226849 -0.29671717 1.3568991 0.71775705 -0.037621286 1.1025914 0.31512794 0.32551292
1.361067 0.11537924 0.5860618 1.6378647 -0.35458186 -1.1966789 -0.16544648 -1.6713684
-0.39131942 0.70772874 1.7503893 0.40252498 1.1573788 -0.010526912 0.13163374 0.89815086
-2.281986 -0.70663196 -1.1797614 -0.9737762 -0.12500267 1.1624506 -0.4756962 -1.1151993
0.4108502 0.18661444 -2.7108665 0.9634683 2.368606 -2.4358077 0.18735462 -2.337929
-1.0454897 0.19183536 0.36659014 1.1380422 0.46152592 -0.017558519 0.3474446 -1.752709
-1.322608 -1.0444919 1.2020215 -0.06080922 -0.574854 -0.2642793 -0.79349846 -0.5599469
1.0232527 -1.6661654 -0.7974142 0.96099603 -0.0744249 -0.6810838 -0.12662452 -0.86307454
0.7931542 0.106384836 1.6950028 -0.04658106 0.80792326 -0.26318878 0.1624883 0.67732227
-1.5224037 -0.54570794 0.7755175 1.4445226 1.1207016 -0.5927746 1.8687503 1.3357083
-2.2227652 -0.21830663 -0.34297648 -1.2474604 0.17692782 1.2569696 -0.5629585 -1.1329324
-1.3672322 1.091189 1.7682309 1.510296 -0.30171627 -0.82042164 -0.65776527 1.6035016
-0.2506936 -0.90832853 -1.1263095 0.7404357 0.05630454 -0.34694713 -0.76382786 0.5241449
0.16125491 1.4467993 -1.1795511 -0.6119036 1.6586336 0.13731164 -0.1435199 -1.2226188
0.749714 1.1046331 -0.2152797 0.97520465 0.47024336 2.0896928 0.6731667 -0.06360071
0.37108973 1.2487924 0.5284876 -0.58154947 -0.27645242 1.7824515 1.1919193 -2.521674
0.027290491 -1.078159 0.71875304 0.34088272 0.51727015 -1.2998556 -0.5797348 0.27235523
0.021551043 -1.2229087 0.9785629 -1.5249571 0.51639813 0.5122416 0.24244325 -0.27322844
0.027747877 0.65941083 0.2722445 -0.22466257 0.19844753 -0.114755355 -0.8051166 -0.92697287
0.93508375 1.2557433 -0.7113886 1.0909749 1.0304184 1.2126843 0.23604907 -0.45121497
-0.17062736 0.69431746 0.91757995 -0.976379 -2.354168 1.8733553 -1.1102674 2.7044914
-0.45477688 -1.3011087 1.2155198 -0.8096386 0.6760186 1.3523438 0.09295797 -0.42030638
-1.2293609 0.44593203 -0.55266875 0.12162539 0.23974665 -0.6049171 0.66525614 0.6429935
-1.0423689 -0.0782358 0.9418875 0.70183814 0.388747 1.8299098 1.2261835 1.0713903
00000000: 768f 733d 804d ee3d ea9b 553f 5f94 34bf
00000010: 1908 2bbf 438a 01bd 186d 8ebe 4ffc 20bf
00000020: f979 a53d e9e4 6c3f b085 2abd e1be 72bf
00000030: 127d 03c0 9c44 d23c bb2e 0cc0 dfb3 853f
00000040: dbb6 f73e cdab 1fbf 9379 3240 a549 79bf
00000050: a7d8 88bf 8b32 a23f 44e2 0e40 8dac 4dbf
00000060: 97be 2a3f cf2b 96bf f555 f2be bf9d 963f
00000070: d10e bf3e 102c 7ebe 19e6 d8bf 1aa1 4a3e
00000080: 6e56 023f bd0c f1bf 368c 6bbe 2b9e 9bbe
00000090: dfa8 423f 00ef 6f3f 845a 51bc 62a6 d03e
000000a0: 887e 1e40 f0cc 43bd 7183 713f e1a6 b8bf
000000b0: 0784 8b3f db9b 94be 128a d93f b4ee 073f
000000c0: 718c 7b3f 3e4a bd3e 5710 193f 7f7d 84be
000000d0: c2e1 6a3f 7068 78be 0bad bc3f 68ae e9be
000000e0: 3ee5 24bf a1c0 7e3f 2f42 913e b291 9a3f
000000f0: 316c 22c0 bb98 a4bf ac0a 77be 02b3 07bf
00000100: 57e7 c2bf 50eb 97be dfae ad3f edbe 373f
00000110: c718 1abd b721 8d3f 7358 a13e a1a9 a63e
00000120: 7237 ae3f f34b ec3d 2508 163f 8da5 d13f
00000130: c18b b5be c62c 99bf cd6a 29be 66ef d5bf
00000140: 055b c8be b62d 353f c20c e03f c117 ce3e
00000150: fd24 943f 1279 2cbc ffca 063e 37ed 653f
00000160: 0f0c 12c0 d5e5 34bf 6c02 97bf 6649 79bf
00000170: b300 00be 2ecb 943f 748e f3be dabe 8ebf
00000180: f55a d23e db17 3f3e d67e 2dc0 dca5 763f
00000190: 3e97 1740 46e4 1bc0 e4d9 3f3e a1a0 15c0
000001a0: 9bd2 85bf 7d70 443e b4b1 bb3e 5eab 913f
000001b0: 204d ec3e e2d6 8fbc 42e4 b13e c558 e0bf
000001c0: 384b a9bf e9b1 85bf d7db 993f 1713 79bd
000001d0: a229 13bf 9e4f 87be b722 4bbf ae58 0fbf
000001e0: f2f9 823f e844 d5bf 5623 4cbf d603 763f
000001f0: 156c 98bd 825b 2ebf dca9 01be 74f2 5cbf
00000200: 270c 4b3f 4be0 d93d daf5 d83f c8cb 3ebd
00000210: 0fd4 4e3f aec0 86be 5563 263e fe64 2d3f
00000220: 20de c2bf 84b3 0bbf 5188 463f 1ee6 b83f
00000230: 2673 8f3f 14c0 17bf 3633 ef3f 7df8 aa3f
00000240: c941 0ec0 c68b 5fbe 9d9a afbe c8ac 9fbf
00000250: 912c 353e 61e4 a03f 0c1e 10bf ee03 91bf
00000260: 7701 afbf 15ac 8b3f 6455 e23f 6151 c13f
00000270: 8e7a 9abe 2707 52bf 4e63 28bf 8a3f cd3f
00000280: e95a 80be 3888 68bf e92a 90bf 328d 3d3f
00000290: 979f 663d 0ea3 b1be 398a 43bf 5c2e 063f
000002a0: 0220 253e b830 b93f 88fb 96bf b7a5 1cbf
000002b0: 1b4e d43f 6c9b 0c3e e1f6 12be c67e 9cbf
000002c0: 42ed 3f3f 9e64 8d3f 4872 5cbe 03a7 793f
000002d0: bdc3 f03e 87bd 0540 a754 2c3f 1741 82bd
000002e0: 79ff bd3e 6ed8 9f3f f74a 073f 6de0 14bf
000002f0: 2c8b 8dbe 5f27 e43f d090 983f 1b63 21c0
00000300: 4f90 df3c 1d01 8abf 3300 383f 2e88 ae3e
00000310: d16b 043f ab61 a6bf 8069 14bf 2572 8b3e
00000320: d08b b03c 4688 9cbf 1983 7a3f cb31 c3bf
00000330: ab32 043f 4422 033f 0b43 783e 99e4 8bbe
00000340: 844f e33c 26cf 283f a263 8b3e f20d 66be
00000350: d435 4b3e db04 ebbd 1f1c 4ebf 184e 6dbf
00000360: a661 6f3f 32bc a03f 901d 36bf 11a5 8b3f
00000370: c0e4 833f 3d39 9b3f d9b6 713e a605 e7be
00000380: f0b8 2ebe cabe 313f 85e6 6a3f f9f3 79bf
00000390: b0aa 16c0 1bca ef3f 3e1d 8ebf 6316 2d40
000003a0: 84d8 e8be bb8a a6bf 2796 9b3f 7a44 4fbf
000003b0: 8e0f 2d3f 9a19 ad3f c060 be3d 6632 d7be
000003c0: b35b 9dbf 3451 e43e b37b 0dbf bc16 f93d
000003d0: 2580 753e d9db 1abf 3a4e 2a3f 399b 243f
000003e0: 586c 85bf 173a a0bd 8a1f 713f aaab 333f
000003f0: d909 c73e 7c3a ea3f 95f3 9c3f 5123 893f

fc2.bias f4 [64]
-0.5664276 0.54323876 0.041052446 -0.62557924 -0.16657719 -0.85039353 0.10868978 0.1532179
-0.41537866 -0.1269648 -0.73623896 0.46938875 -0.28963214 0.6863922 0.14130668 0.565438
-0.43228522 0.1914222 0.37975824 0.9038239 -0.4399211 -0.24319385 0.15282997 0.03804907
-0.7319526 0.23094821 0.3885758 -0.7786982 -0.025545968 1.1095589 -0.14487989 0.39203376
0.116158254 -0.44636422 -0.33992434 -0.7020357 0.017319867 -0.061158437 -0.011615547 1.2574724
-0.641428 0.06257614 -0.9772034 -0.046916943 0.18146458 -0.26542395 -0.5510408 -0.4424614
-0.35097608 -0.03615013 0.3397462 0.5686052 -0.15750776 0.1108464 0.11407286 -0.3172383
-0.61228245 0.10884406 -0.092726685 0.1914921 0.0591691 -0.4954472 -0.53222585 0.7428969
00000000: 6601 11bf b211 0b3f 9c26 283d f625 20bf
00000010: 3693 2abe 64b3 59bf bf98 de3d 27e5 1c3e
00000020: 83ac d4be 0f03 02be 287a 3cbf b953 f03e
00000030: aa4a 94be 66b7 2f3f b3b2 103e 8bc0 103f
00000040: 7d54 ddbe 2e04 443e ac6f c23e 0161 673f
00000050: 573d e1be cf07 79be 767f 1c3e 57d9 1b3d
00000060: 3f61 3bbf b07d 6c3e 68f3 c63e c458 47bf
00000070: c745 d1bc 0706 8e3f 655b 14be a6b8 c83e
00000080: 61e4 ed3d da89 e4be 900a aebe 9db8 33bf
00000090: 65e2 8d3c 4581 7abd 234f 3ebc dbf4 a03f
000000a0: a034 24bf eb27 803d 012a 7abf fb2b 40bd
000000b0: dad1 393e a6e5 87be 0311 0dbf 4d8a e2be
000000c0: 23b3 b3be 2912 14bd 37f3 ad3e 1c90 113f
000000d0: b749 21be 7003 e33d 089f e93d 0f6d a2be
000000e0: 8bbe 1cbf a2e9 de3d 7de7 bdbd 8116 443e
000000f0: 4c5b 723d 41ab fdbe f43f 08bf 7e2e 3e3f

out.weight f4 [4, 64]
1.5059431 -1.8667997 2.0690286 4.0451765 2.3424237 4.4031672 2.3246782 2.0747678
4.453154 -4.079546 -6.1914206 -2.4415004 7.847858 -2.1603327 -1.3411707 -0.2615935
-1.7840604 -1.9331918 -3.7049868 -2.1722107 3.5011435 -3.1275048 -5.046936 2.7497017
-4.7003994 -2.7173154 -4.690237 2.322673 -2.6383107 -6.2625146 7.30118 5.7361903
1.2621925 2.705718 7.4246616 1.4503971 6.310494 -3.3494172 -2.9174812 5.3243
3.894051 -1.9620775 3.4752266 1.9319514 -4.156064 2.348239 7.076942 -6.828595
3.3671775 1.690107 -7.6689706 -1.7525661 -7.2858405 -7.5429254 -2.4477494 3.539739
0.22930244 -3.5400438 1.9727533 1.8264695 -1.9186771 1.2072774 7.3465376 -6.3589597
1.3105445 -1.7095962 2.1915655 3.2962842 2.5736828 4.5609202 2.2096972 2.0983531
3.6304286 -5.0841427 -5.332721 -2.5975065 8.206197 -1.5363653 -1.4409565 0.20771046
-1.402626 -1.4636499 -3.362223 -3.784657 4.458704 -3.0122378 -4.3876767 3.1901832
-5.0841594 -3.285985 -4.240421 1.7502316 -3.1172 -6.837484 6.9811583 5.5407467
1.9764003 3.5340571 6.549073 1.767622 6.6159124 -3.0977314 -3.3421812 6.4501657
3.366805 -3.0619173 3.5975027 1.7199528 -4.62967 1.839597 7.047466 -6.664628
3.7853973 1.8258902 -7.779834 -2.458645 -7.8917394 -7.978128 -1.7792711 3.5596728
1.2843732 -3.3612256 2.5495389 2.216391 -1.2885551 1.2375671 8.366727 -5.6297317
1.381159 -2.0911589 2.0944777 3.511545 1.9502263 5.322297 2.3535209 2.0587482
3.679049 -4.5537276 -5.821062 -2.7127204 5.913319 -2.1499648 -0.56931216 -1.2972519
-1.4496022 -1.6700948 -3.3726456 -2.8325229 3.8679802 -3.5508995 -5.298579 2.0122876
-5.2702003 -3.3734195 -4.5439453 1.8028904 -2.9731417 -6.0509753 6.8514404 5.1202025
2.1832395 2.5915663 7.9033155 1.6316061 8.29445 -3.7455175 -2.4448595 5.9163547
3.369645 -1.7174854 3.4973369 1.6260093 -4.592707 2.5623524 8.20126 -6.7048173
3.6074672 1.7317904 -8.393795 -2.493669 -8.055122 -7.36558 -3.9494808 2.6936166
-2.4713266 -4.0249104 2.8150613 2.6076198 -2.6905146 2.449804 7.2612853 -5.566653
2.244899 -1.9935063 3.3587961 4.2318425 2.1772506 4.057055 2.3643768 2.4636295
4.1981134 -3.9792476 -6.675956 -2.9450982 7.9692345 -1.991629 -1.5276375 -1.2832838
-1.6220299 -2.2659028 -3.181903 -2.6614783 3.9184473 -2.868845 -4.7930517 3.5894473
-4.2565565 -2.8994029 -3.9066143 2.6728425 -2.5739815 -6.3602047 7.210342 5.8913417
1.7114546 1.9604533 7.632943 1.4641914 6.9422626 -3.757857 -3.0192719 5.877675
3.8012993 -2.423151 3.4548044 2.264422 -3.6946003 2.4464457 8.676481 -6.81541
2.7296262 1.8869425 -8.759687 -1.8395832 -6.79475 -7.7472343 -2.975458 2.4880471
0.04055162 -4.0143332 1.7366357 1.9710672 -2.2554219 1.0660346 7.0216765 -6.513185
00000000: bec2 c03f 4bf3 eebf f76a 0440 1672 8140
00000010: 45ea 1540 bfe6 8c40 87c7 1440 ffc8 0440
00000020: 3d80 8e40 a48b 82c0 1e20 c6c0 8b41 1cc0
00000030: a721 fb40 e442 0ac0 7bab abbf 95ef 85be
00000040: 175c e4bf d472 f7bf 811e 6dc0 8005 0bc0
00000050: bc12 6040 0a29 48c0 8080 a1c0 1dfb 2f40
00000060: ac69 96c0 7fe8 2dc0 6c16 96c0 ada6 1440
00000070: 15da 28c0 8566 c8c0 44a3 e940 df8e b740
00000080: 868f a13f 7c2a 2d40 d496 ed40 9da6 b93f
00000090: 91ef c940 da5c 56c0 03b8 3ac0 aa60 aa40
000000a0: 2238 7940 5b25 fbbf 1d6a 5e40 2f4a f73f
000000b0: 7afe 84c0 8c49 1640 4f76 e240 da83 dac0
000000c0: d67f 5740 6d55 d83f 3568 f5c0 1654 e0bf
000000d0: 9b25 e9c0 a55f f1c0 eda7 1cc0 158b 6240
000000e0: 42ce 6a3e 1490 62c0 2e83 fc3f c1c9 e93f
000000f0: 3697 f5bf 1188 9a3f d616 eb40 997c cbc0
00000100: ecbf a73f 0cd4 dabf 9c42 0c40 52f6 5240
00000110: 38b7 2440 0ff3 9140 ae6b 0d40 6b4b 0640
00000120: f158 6840 4cb1 a2c0 a7a5 aac0 8c3d 26c0
00000130: 954c 0341 9ea7 c4bf 4371 b8bf 0db2 543e
00000140: 4089 b3bf e158 bbbf a92e 57c0 d237 72c0
00000150: b4ad 8e40 81c8 40c0 d967 8cc0 f62b 4c40
00000160: 6fb1 a2c0 944d 52c0 87b1 87c0 9707 e03f
00000170: 3480 47c0 abcc dac0 a665 df40 cc4d b140
00000180: affa fc3f fe2d 6240 0292 d140 7041 e23f
00000190: 8eb5 d340 3b41 46c0 4ce6 55c0 c267 ce40
000001a0: bc79 5740 74f6 43c0 7c3d 6640 6a27 dc3f
000001b0: 4226 94c0 ea77 eb3f d784 e140 a244 d5c0
000001c0: f343 7240 c5b6 e93f 66f4 f8c0 715a 1dc0
000001d0: 2189 fcc0 d34c ffc0 28bf e3bf aed1 6340
000001e0: 5766 a43f 521e 57c0 a52b 2340 5ad9 0d40
000001f0: 60ef a4bf 9968 9e3f 1dde 0541 c326 b4c0
00000200: d1c9 b03f 8cd5 05c0 ec0b 0640 27bd 6040
00000210: 04a1 f93f 4250 aa40 16a0 1640 88c2 0340
00000220: 8a75 6b40 23b8 91c0 2446 bac0 369d 2dc0
00000230: e939 bd40 0699 09c0 71be 11bf 5a0c a6bf
00000240: 918c b9bf abc5 d5bf 6dd9 57c0 0e48 35c0
00000250: fd8c 7740 f041 63c0 f68d a9c0 52c9 0040
00000260: 7ba5 a8c0 1be6 57c0 0068 91c0 1dc5 e63f
00000270: f447 3ec0 97a1 c1c0 003f db40 b3d8 a340
00000280: 32ba 0b40 39dc 2540 f6e7 fc40 78d8 d03f
00000290: 11b6 0441 8fb6 6fc0 9478 1cc0 c752 bd40
000002a0: 44a8 5740 90d6 dbbf 5ed4 5f40 1321 d03f
000002b0: 75f7 92c0 95fd 2340 5c38 0341 dd8d d6c0
000002c0: bee0 6640 4fab dd3f fc4c 06c1 4698 1fc0
000002d0: c8e1 00c1 d5b2 ebc0 4bc4 7cc0 3764 2c40
000002e0: 372a 1ec0 11cc 80c0 f729 3440 3ee3 2640
000002f0: 6431 2cc0 97c9 1c40 735c e840 0522 b2c0
00000300: 6dac 0f40 372b ffbf 84f6 5640 416b 8740
00000310: 1358 0b40 65d3 8140 f351 1740 1bac 1d40
00000320: f256 8640 feab 7ec0 6ea1 d5c0 7d7c 3cc0
00000330: f803 ff40 b3ed febf a089 c3bf a542 a4bf
00000340: ad9e cfbf 8d04 11c0 4ca4 4bc0 a955 2ac0
00000350: d7c7 7a40 289b 37c0 ae60 99c0 81b9 6540
00000360: b635 88c0 d18f 39c0 f805 7ac0 da0f 2b40
00000370: 1dbc 24c0 cc86 cbc0 1fbb e640 df85 bc40
00000380: f210 db3f 22f0 fa3f 1241 f440 a06a bb3f
00000390: 0427 de40 bb80 70c0 c03b 41c0 ea15 bc40
000003a0: 7d48 7340 e814 1bc0 841b 5d40 4aec 1040
000003b0: 5574 6cc0 9192 1c40 ded2 0a41 d717 dac0
000003c0: 32b2 2e40 5587 f13f ae27 0cc1 7677 ebbf
000003d0: 986e d9c0 58e9 f7c0 e76d 3ec0 2a3c 1f40
000003e0: 7519 263d 6b75 80c0 144a de3f ee4b fc3f
000003f0: d558 10c0 d273 883f 93b1 e040 036c d0c0

out.bias f4 [4]
2.509703 1.8280573 3.0519109 2.3656487
00000000: f99e 2040 c8fd e93f 8252 4340 ca66 1740
